less_complex_0.016loss.pth (torch, 143838 bytes, 6 tensors)

weight f4 [128, 7]
0.31295422 -0.5921609 0.26464167 0.6509379 0.21572344 -1.3308597 -1.4381963 0.0020961284
0.0012373521 0.0049507366 -0.001959808 -0.0026294158 0.0014304428 0.003717237 -0.025940778 0.072891384
-0.050729766 0.08870724 0.42829207 0.01244859 0.9872667 1.5375323 -1.0804359 -0.45227668
1.1511731 -0.10455077 1.0356684 -0.6779806 -0.0028265289 0.0049297307 -0.0006610918 0.0020436996
0.0011789256 -0.000833509 0.0012433911 -0.09431091 0.09580901 0.015669618 -0.56741 1.1314527
0.7088185 0.016013922 -0.0017680116 0.0030727643 0.0025037196 -0.003135043 -0.003223696 -0.00058133755
0.0028189458 -2.8059352e-05 0.0032403532 0.00029987746 -0.0025225 -0.0013034568 -0.00058432185 -0.000461468
0.00025982532 0.0048698885 -0.0011126131 0.00028051285 0.0020689599 0.0010833383 0.00093807105 0.0007328711
-0.0030537203 -0.0040411246 0.0043164357 0.0010651024 -0.003037678 -0.004813735 0.0015917413 -0.0050448882
0.0024441641 -0.0003174358 -6.811305e-06 0.0030711049 0.00038965084 -0.33115768 0.4784042 -0.18236427
-0.93893814 0.7198957 5.315716 4.616002 0.1192479 -0.6964807 0.60119796 -0.62020046
0.99002594 -0.049630594 1.3135266 -1.4350331 0.46703824 0.96357834 -0.36784324 1.0163538
-0.17649592 -2.286194 -1.4672519 0.102912836 1.3379569 -1.4819098 0.321909 1.2803626
7.829436 1.6880053 -0.7981136 -0.8739678 -4.9006653 0.094801486 0.5750402 -5.425465
-0.0006266985 0.0016907161 -0.000307967 0.0038074038 0.00076513545 -0.0035983613 -0.002940522 1.6724248
-0.59756154 -1.0644747 0.06541841 -0.013342477 1.3973781 7.0596337 -0.9336782 0.0056086383
0.92976975 -5.450844 0.31772593 -2.976278 1.2618736 0.24779075 0.71048665 -0.953065
0.5845636 -0.93246835 -0.27672893 0.5880136 -0.0036434967 0.003669629 0.00092843577 0.0059670284
0.0021343804 0.0030176842 0.0022956498 1.3086799 0.11908364 -1.4292083 -4.523563 0.38761336
9.036757 4.3924837 0.31509212 0.07498758 -0.3856631 -4.3857603 -0.06864925 5.8566337
-4.9675794 -0.001539848 -0.005238721 -0.0021734547 -0.0005528585 -0.0009664748 0.00055735774 -0.002092713
-0.37411383 -0.0071839057 0.3782034 2.1952338 -0.11873568 -3.1724608 -4.2396393 0.85304433
-1.0362583 0.17217433 -0.30742618 -0.3962155 2.6972153 -1.0723734 0.00726312 -7.9828504e-05
0.0024494266 -0.0022321125 -0.0047034854 -0.0006233247 -0.00047210205 -0.0007731633 0.0031280671 -0.004638888
0.001653262 0.0013307483 0.0029616663 -0.0020537314 0.0036894395 -0.00271377 -0.0020444065 0.0003086495
0.00094403594 -0.001095411 -0.0029792017 -0.8875686 0.95473784 -0.06255479 1.3503654 0.44472334
-0.43936414 1.31358 -0.005609239 0.0061572087 -0.004784854 0.0050149676 0.00086683873 0.0007293583
-0.0017831787 0.0029194606 0.0029989448 0.0037929516 -0.0056289556 -0.00385575 0.00093954685 0.0031567095
-0.0012496621 0.00019244631 -0.0016503026 -0.0005797499 -0.0030890096 -0.004145553 0.00047104174 -0.002365667
0.0015828457 -0.0040542963 0.0010516478 -0.0039318954 0.00054492574 -0.0035409348 -0.0024126826 0.0036373257
-0.0017036162 -0.002721945 -0.0031011428 -0.0028652993 0.00015640947 -0.32796445 -0.18598941 0.5079191
-0.70732635 0.87517816 0.072145164 -1.4608365 -2.0000577 1.2100734 0.80650663 -0.11374971
00000000: 893b a03e db97 17bf 1d7f 873e dea3 263f
00000010: 9be6 5c3e 9c59 aabf d116 b8bf 335f 093b
00000020: a62e a23a ca39 a23b 1f70 00bb 4752 2cbb
00000030: b27d bb3a e39c 733b c181 d4bc 1448 953d
00000040: 04ca 4fbd 24ac b53d 1949 db3e 2cf5 4b3c
00000050: 83bd 7c3f dccd c43f b94b 8abf cf90 e7be
00000060: a459 933f b71e d6bd c890 843f 2390 2dbf
00000070: 493d 39bb 9489 a13b 1f4d 2dba 97ef 053b
00000080: 2e86 9a3a d87f 5aba 48f9 a23a 1426 c1bd
00000090: 8437 c43d 925d 803c c841 11bf 71d3 903f
000000a0: 2175 353f a12f 833c a0bc e7ba 6e60 493b
000000b0: 7215 243b 4b75 4dbb a544 53bb e764 18ba
000000c0: 10be 383b 0061 ebb7 1b5c 543b df38 9d39
000000d0: 8750 25bb c1d8 aaba 2d2d 19ba 30f1 f1b9
000000e0: 2a39 8839 9693 9f3b 1ad5 91ba cc11 9339
000000f0: 6397 073b cdfe 8d3a e2e8 753a 261e 403a
00000100: ed20 48bb 696b 84bb e370 8d3b e89a 8b3a
00000110: c813 47bb 89bc 9dbb faa1 d03a 974f a5bb
00000120: 452e 203b 836d a6b9 aa8c e4b6 9744 493b
00000130: 0d4a cc39 808d a9be 65f1 f43e b3bd 3abe
00000140: 405e 70bf 164b 383f 581a aa40 4ab6 9340
00000150: 3e38 f43d 8f4c 32bf 1ce8 193f 75c5 1ebf
00000160: 5772 7d3f 7349 4bbd a421 a83f 2aaf b7bf
00000170: a31f ef3e 12ad 763f f355 bcbe e217 823f
00000180: 59bb 34be 0151 12c0 e9ce bbbf f7c3 d23d
00000190: 2c42 ab3f 38af bdbf 42d1 a43e ece2 a33f
000001a0: bd8a fa40 8f10 d83f 2c51 4cbf 5bbc 5fbf
000001b0: 40d2 9cc0 4827 c23d d635 133f 699d adc0
000001c0: 0649 24ba 059b dd3a a276 a1b9 a385 793b
000001d0: 5f93 483a 7cd2 6bbb c6b5 40bb 0412 d63f
000001e0: cbf9 18bf b540 88bf 16fa 853d 689a 5abc
000001f0: 49dd b23f 85e8 e140 8905 6fbf abc8 b73b
00000200: 6405 6e3f 506d aec0 f9ac a23e 577b 3ec0
00000210: 1385 a13f dcbc 7d3e 74e2 353f 11fc 73bf
00000220: f6a5 153f 3fb6 6ebf 6aaf 8dbe 0f88 163f
00000230: bbc7 6ebb 297e 703b 4562 733a 1087 c33b
00000240: f6e0 0b3b 57c4 453b 9d72 163b d382 a73f
00000250: 20e2 f33d 4cf0 b6bf 07c1 90c0 4275 c63e
00000260: 8f96 1041 3a8f 8c40 c153 a13e 1793 993d
00000270: a275 c5be 2658 8cc0 fa97 8cbd 8b69 bb40
00000280: 69f6 9ec0 bad4 c9ba 94a9 abbb 8570 0ebb
00000290: b5ed 10ba 075b 7dba a51b 123a e625 09bb
000002a0: d98b bfbe f866 ebbb e0a3 c13e b67e 0c40
000002b0: b12b f3bd 9909 4bc0 20ab 87c0 1d61 5a3f
000002c0: 1da4 84bf 784e 303e f766 9dbe c2dc cabe
000002d0: 2d9f 2c40 8843 89bf 77ff ed3b 9a69 a7b8
000002e0: 8f86 203b a248 12bb b21f 9abb 9d66 23ba
000002f0: 7784 f7b9 1cae 4aba 4200 4d3b d001 98bb
00000300: 44b2 d83a 816c ae3a 8418 423b e597 06bb
00000310: 86ca 713b 81d9 31bb 73fb 05bb 3cd2 a139
00000320: 2e79 773a e593 8fba b63e 43bb b237 63bf
00000330: b369 743f ba1c 80bd c6d8 ac3f c7b2 e33e
00000340: 56f4 e0be 6423 a83f b5cd b7bb 69c2 c93b
00000350: 44ca 9cbb 9954 a43b 903c 633a 6832 3f3a
00000360: 8cb9 e9ba 6c54 3f3b f289 443b 2b93 783b
00000370: 1a73 b8bb c0b0 7cbb ec4b 763a cce0 4e3b
00000380: b4cb a3ba 6acb 4939 f74e d8ba 5bfa 17ba
00000390: fb70 4abb 6bd7 87bb 27f6 f639 4e09 1bbb
000003a0: 7d77 cf3a e7d9 84bb 72d7 893a 21d7 80bb
000003b0: 59d9 0e3a 070f 68bb 191e 1ebb 3360 6e3b
000003c0: e04b dfba a962 32bb 8b3c 4bbb bfc7 3bbb
000003d0: d901 2439 f5ea a7be 0274 3ebe fc06 023f
000003e0: 5713 35bf ad0b 603f d8c0 933d b1fc babf
000003f0: f200 00c0 afe3 9a3f 3877 4e3f 9cf5 e8bd

bias f4 [128]
-1.6289295 -0.0067085926 0.9121801 -0.81071156 0.00023355216 0.78082544 -0.0039785467 7.395451e-05
0.00076736533 0.005052138 -0.0014649503 0.71517396 1.1008695 -0.79291415 2.157236 0.021138616
0.001910791 -0.59746623 1.0040634 -0.20833325 -0.0033261927 4.5158486 -0.6303999 0.0047704657
0.8847796 1.9215114 -0.0011721189 0.0019533653 0.0052685025 1.1284773 0.00038603254 -0.007405383
0.003512449 0.0054972717 0.002866811 -1.3046676 0.78432316 -0.20118006 0.5795729 0.32034636
0.00094705634 -0.0020262534 -0.0006023158 0.08998584 -1.0917401 0.0009885408 0.0018736632 0.002973889
0.10571242 -0.00021594009 0.923699 -1.4475068 -6.691114e-06 -0.003304287 0.026214158 -0.005264137
-0.002460344 -0.27556467 0.2286854 2.3503804 -0.0047717895 -0.0039615766 -0.0035547598 1.6082609
-0.0018783141 4.5814915 0.0040380987 1.0768347 -0.0009815074 -0.0037963367 -0.42197397 1.6664779e-06
4.718366 -1.9051859 0.25375235 0.83860415 -0.0005360908 -0.0024861253 -0.0011575781 -0.0055344286
-0.0013985271 -0.013620486 0.004283398 -0.0011909903 0.3587891 -0.0050136554 -0.15741916 0.0021257799
-3.8387685 -0.16522935 0.0010805913 -0.0035351277 0.0005428756 1.492853 -0.18265235 0.000120052544
0.6989716 -0.00019701128 0.005291247 1.6665604 -0.002261952 -0.0047092475 0.0013343361 0.14654739
2.0666635 -3.229694 1.6069448 0.4836699 -0.00038033904 0.00024651745 0.0059355083 2.513532
0.000762091 0.0010921406 -0.869745 0.0065036993 0.0010538764 -0.23835568 3.394491 -0.8326284
0.001151687 1.7900897 -0.0036090955 -0.669771 -1.0804777 -0.0025995285 -0.0038644837 1.3493397
00000000: c380 d0bf c1d3 dbbb a384 693f cb8a 4fbf
00000010: aee5 7439 2de4 473f 785e 82bb 0618 9b38
00000020: 0429 493a 688c a53b 9303 c0ba a415 373f
00000030: 4be9 8c3f 6cfc 4abf 2810 0a40 e42a ad3c
00000040: 8273 fa3a 8cf3 18bf 2685 803f 5055 55be
00000050: 41fc 59bb d581 9040 e361 21bf 9151 9c3b
00000060: ea80 623f 16f4 f53f c9a1 99ba 0804 003b
00000070: 67a3 ac3b f271 903f 6964 ca39 dba8 f2bb
00000080: 1e31 663b 7522 b43b 1be1 3b3b 59ff a6bf
00000090: 67c9 483f 2502 4ebe e45e 143f 7004 a43e
000000a0: e043 783a e4ca 04bb bbe4 1dba 7f4a b83d
000000b0: 24be 8bbf ed91 813a b495 f53a 94e5 423b
000000c0: c17f d83d fa6d 62b9 8a77 6c3f e747 b9bf
000000d0: 3b84 e0b6 bd8c 58bb 13bf d63c c87e acbb
000000e0: b93d 21bb d016 8dbe 812c 6a3e a26c 1640
000000f0: ac5c 9cbb 1dd0 81bb f9f6 68bb 7edb cd3f
00000100: c331 f6ba 949b 9240 0752 843b b8d5 893f
00000110: eca5 80ba f6cb 78bb f90c d8be bfab df35
00000120: dbfc 9640 22dd f3bf d4eb 813e c3ae 563f
00000130: 7288 0cba 43ee 22bb e0b9 97ba 275a b5bb
00000140: c84e b7ba 7528 5fbc bf5b 8c3b 011b 9cba
00000150: 34b3 b73e 9749 a4bb 7d32 21be ab50 0b3b
00000160: 62ae 75c0 e231 29be a1a2 8d3a 9aad 67bb
00000170: c44f 0e3a cf15 bf3f 3809 3bbe b8c4 fb38
00000180: ceef 323f d094 4eb9 3262 ad3b da51 d53f
00000190: 423d 14bb 0850 9abb e4e4 ae3a 8510 163e
000001a0: 3744 0440 4eb3 4ec0 5eb0 cd3f 95a3 f73e
000001b0: 3e68 c7b9 033f 8139 a77e c23b b5dd 2040
000001c0: 10c7 473a 2826 8f3a 9ca7 5ebf fc1c d53b
000001d0: 3922 8a3a 8313 74be 573f 5940 2327 55bf
000001e0: 34f4 963a a921 e53f 9386 6cbb 1d76 2bbf
000001f0: 184d 8abf da5c 2abb 4743 7dbb 2ab7 ac3f

weight f4 [256, 128]
0.25824085 0.026175687 -0.29277083 -0.44274586 -0.044911236 -0.8024304 -0.0013122694 0.031567413
-0.022116987 0.043284804 0.051568866 -0.39956895 -0.2583016 0.0694591 -0.17383581 0.40354857
0.03277678 0.4801529 0.6163173 0.58157533 0.002664544 -1.573294 0.70986795 -0.03668427
-0.3933712 -1.3255582 0.05390058 0.029466825 -0.043841984 -0.73148525 0.017554607 0.06657202
-0.078808464 -0.029422069 -0.10316011 0.6118222 -0.81276137 -0.22591574 0.34301868 1.8147992
0.08305156 -0.027739588 0.00899147 0.7250473 0.16075256 0.020438025 -0.013570603 0.04751867
-0.737511 0.0030888042 0.49902502 -0.1746502 -0.07127014 -0.011430516 -1.2228582 -0.003054027
0.0103662945 -2.0697987 0.7854798 0.18525945 0.009924229 -0.05428569 -0.046770528 -0.5501939
0.0005890302 -0.63930315 0.032043234 0.27486148 -0.077330105 -0.043295298 0.28404906 -0.038524237
-0.9301387 -0.34174958 1.9154274 -1.6793581 0.07321696 0.05690064 -0.06882544 0.010712233
-0.05356671 -0.3279641 0.012284413 -0.0043756007 -1.1884251 -0.0108710425 0.41084212 0.00068703835
0.75135356 0.40771073 -0.04785711 0.01136197 0.016099228 -1.1845249 -0.23969217 -0.054545946
-0.06769432 -0.029365273 -0.03672595 -1.2912217 -0.024406455 0.06939382 0.015933491 -0.4070114
-0.2727442 -0.54257053 -1.2754831 -0.22027768 -0.081617765 -0.032980338 -0.037856735 -0.98082846
-0.00870842 -0.034757964 0.4176493 -0.021048825 0.052541487 -0.9078429 -0.48482808 1.0060067
0.020108849 -0.19832096 -0.008437666 1.1873055 0.10367742 -0.005971639 -0.014198723 0.37489924
0.13375442 0.023378862 -0.093897745 0.03296915 -0.008408426 -0.10151397 0.16414218 0.0004815633
-0.05925251 -0.10957439 0.030915786 -0.0009394972 -0.09277158 0.18079774 -0.0024241176 -0.021097155
-0.065912634 0.049268365 -0.08363727 0.12267448 0.06477174 0.006889418 0.022122638 -0.07539965
-0.15253185 -0.077220656 0.01369681 -0.08569637 -0.10141777 -0.08379769 0.025072396 -0.060546067
0.096545264 0.11731462 -0.08470097 0.07963588 -0.03243848 -0.018545326 -0.08590828 -0.116917856
-0.053261418 -0.01615629 -0.018404096 -0.018684007 0.04800258 -0.10406065 -0.081383936 0.05620884
0.03952377 0.10561607 0.04285388 -0.018386139 -0.009706655 0.0074134073 0.0074468167 -0.053779125
0.039948653 -0.06955383 -0.050310362 -0.08454487 -0.057029497 0.04763154 -0.08654497 -0.09972967
0.06558883 0.043835897 0.113901764 -0.01212477 -0.12549615 0.05442674 -0.034810558 -0.07124205
-0.059986096 -0.01826234 -0.13223623 -0.09860068 0.076852344 -0.07511523 0.13993505 0.08161888
-0.13145281 0.1552738 0.08356408 -0.07818475 -0.04812771 0.011022652 0.058498815 -0.11012785
0.029433295 -0.013618389 0.10855007 -0.112632014 0.038717534 -0.046030506 0.0944359 0.00033589557
-0.05274834 0.05420866 0.070975244 -0.053754438 0.09840502 0.1781022 -0.042733945 -0.0803933
-0.06263218 -0.027960988 -0.087871745 -0.001405119 0.019557329 0.16387796 0.029845806 -0.13625397
-0.099979006 -0.039581504 -0.04477859 -0.013987987 -0.13868688 -0.13450047 0.020742299 0.051971514
0.0737288 -0.122801505 -0.022240102 0.005151204 0.11362728 -0.06421496 0.029552326 -0.020142801
00000000: 2538 843e 656e d63c 0fe6 95be 96af e2be
00000010: d8f4 37bd 146c 4dbf 7400 acba d54c 013d
00000020: af2e b5bc 684b 313d e039 533d 4d94 ccbe
00000030: 1b40 84be 9340 8e3d 0402 32be eb9d ce3e
00000040: f240 063d 9ad6 f53e f8c6 1d3f 1fe2 143f
00000050: a19f 2e3b b361 c9bf e8b9 353f 3f42 16bd
00000060: f367 c9be e4ab a9bf dbc6 5c3d 6964 f13c
00000070: a793 33bd 9e42 3bbf aece 8f3c e956 883d
00000080: 5566 a1bd 8d06 f1bc 9c45 d3bd 61a0 1c3f
00000090: 2111 50bf 7556 67be 25a0 af3e 574b e83f
000000a0: f016 aa3d 223e e3bc f550 133c b39c 393f
000000b0: 529c 243e a56d a73c 3c57 5ebc f0a2 423d
000000c0: 85cd 3cbf 896d 4a3b 3580 ff3e 81d7 32be
000000d0: 14f6 91bd 0f47 3bbc 9e86 9cbf 1226 48bb
000000e0: 64d7 293c 9577 04c0 3415 493f a7b4 3d3e
000000f0: 3c99 223c ac5a 5ebd 7492 3fbd 82d9 0cbf
00000100: 2669 1a3a 5fa9 23bf c43f 033d a5ba 8c3e
00000110: 3f5f 9ebd 6956 31bd e16e 913e 97cb 1dbd
00000120: 921d 6ebf cdf9 aebe ba2c f53f 35f5 d6bf
00000130: c6f2 953d a510 693d 5af4 8cbd 5d82 2f3c
00000140: c468 5bbd e9ea a7be 9044 493c 3361 8fbb
00000150: 501e 98bf 751c 32bc e659 d23e 5d1a 343a
00000160: b558 403f 76bf d03e d105 44bd 8e27 3a3c
00000170: 87e2 833c 839e 97bf dd71 75be 926b 5fbd
00000180: 52a3 8abd 718f f0bc f36d 16bd c146 a5bf
00000190: 0cf0 c7bc 591e 8e3d f486 823c cc63 d0be
000001a0: 21a5 8bbe e7e5 0abf 0843 a3bf 7990 61be
000001b0: 3727 a7bd 6416 07bd aa0f 1bbd 9317 7bbf
000001c0: c3ad 0ebc 5e5e 0ebd 21d6 d53e 966e acbc
000001d0: be35 573d 6468 68bf 633b f8be d4c4 803f
000001e0: 50bb a43c a614 4bbe 233e 0abc a0f9 973f
000001f0: d454 d43d bdad c3bb c3a1 68bc cbf2 bf3e
00000200: ebf6 083e 0785 bf3c 764d c0bd a90a 073d
00000210: 7fc3 09bc 8ee6 cfbd e314 283e 557a fc39
00000220: c3b2 72bd 8a68 e0bd 1a43 fd3c 9748 76ba
00000230: 07ff bdbd 0b23 393e f2dd 1ebb f1d3 acbc
00000240: 34fd 86bd a0cd 493d 044a abbd c23c fb3d
00000250: 0ca7 843d a0c0 e13b 893a b53c 226b 9abd
00000260: 4f31 1cbe dd25 9ebd 9668 603c 9481 afbd
00000270: 1fb4 cfbd 209e abbd a064 cd3c 27ff 77bd
00000280: 86b9 c53d a642 f03d b477 adbd 2318 a33d
00000290: 36de 04bd 5eec 97bc aef0 afbd a172 efbd
000002a0: a528 5abd 325a 84bc 30c4 96bc 340f 99bc
000002b0: 5a9e 443d c01d d5bd 9fac a6bd 3e3b 663d
000002c0: ade3 213d 3d4d d83d 8d87 2f3d 879e 96bc
000002d0: a908 1fbc 2bec f23b 6d04 f43b 8047 5cbd
000002e0: 33a1 233d 3d72 8ebd 3d12 4ebd dc25 adbd
000002f0: c397 69bd 4a19 433d 7d3e b1bd 123f ccbd
00000300: 7053 863d 458d 333d 5445 e93d f9a6 46bc
00000310: 1082 00be 93ee 5e3d 8495 0ebd 5ae7 91bd
00000320: fbb3 75bd e79a 95bc ef68 07be 27ef c9bd
00000330: c364 9d3d 04d6 99bd 224b 0f3e cd27 a73d
00000340: 919b 06be 1800 1f3e a523 ab3d 541f a0bd
00000350: 9021 45bd 5a98 343c 749c 6f3d b68a e1bd
00000360: 181e f13c aa1f 5fbc 804f de3d 9dab e6bd
00000370: 4796 1e3d 7c8a 3cbd 9c67 c13d 241b b039
00000380: a50e 58bd e609 5e3d 785b 913d 9d2d 5cbd
00000390: 9288 c93d 6c60 363e ca09 2fbd 3ea5 a4bd
000003a0: 4d45 80bd 710e e5bc 1af6 b3bd f82b b8ba
000003b0: b136 a03c a0cf 273e 317f f43c 2986 0bbe
000003c0: cbc1 ccbd 3720 22bd c169 37bd df2d 65bc
000003d0: ef03 0ebe 7eba 09be c1eb a93c 15e0 543d
000003e0: 20ff 963d 5b7f fbbd e030 b6bc 6ecb a83b
000003f0: 6bb5 e83d 2283 83bd b817 f23c 8402 a5bc

bias f4 [256]
-1.1427039 -0.066017464 -0.083355255 -0.25904316 -0.18103659 -0.3052336 -0.30892983 -0.082954645
-0.67575103 -0.1438833 -1.1268439 -0.17122357 -1.2777935 -0.159881 -0.079675704 -0.35655388
-0.19872689 -0.20773482 -0.29726604 -0.19287466 -0.18458946 -0.15513657 -0.06101087 -0.23933156
-0.11647306 -0.14573629 -0.26657256 -0.36884525 -0.15621576 -0.19282079 -0.15106887 -0.23041733
-0.16955145 -1.1989523 -0.2408535 -0.1566409 -0.21522953 -0.23858586 -0.6540823 -0.60028446
-0.8839218 -0.2764575 -0.19065969 -0.14245465 -0.4025542 -0.035270184 -0.19577825 -1.0713845
-0.13418359 -0.36022213 -0.28705698 -0.15251711 -0.5209954 -0.8341513 -0.21584436 -0.08012767
-0.6914106 -1.6792737 -0.1898585 -0.0923954 -0.16570362 -0.29768845 0.1878857 -0.2132272
-0.19945358 -0.2064249 -0.29898477 -0.24546273 -0.19488913 -0.24634944 -0.2367781 -0.1575749
-0.87827647 -0.32205382 -1.7886591 -2.102484 -0.20215245 -0.08602073 -0.19161123 -0.18332304
-0.36096904 -0.1697282 -0.19522445 -0.7178679 -0.19093165 -0.18127899 -0.19246094 -0.096516155
-1.0676671 -1.5361038 -0.23816365 -0.19523269 -0.21256863 -0.1587395 -0.6618793 -0.22463222
-0.5504977 -1.2495229 -1.0773185 -1.2894603 -0.1506727 -0.2947829 0.11060129 -0.17352168
-0.5121052 -0.53840065 -1.2435516 -0.3076805 -0.14793083 -0.13707948 0.005565173 -0.58306324
-0.15839219 -0.3755408 -0.1274207 -0.16891406 -0.20901255 -0.91444343 -0.51384383 -0.16010521
-0.70561564 -0.19403374 -1.313372 -0.68422896 -0.15552881 -0.52035236 -0.22653331 -0.256695
-0.5178283 -0.20902717 -0.54706466 -0.24833417 -0.82421863 -0.2243232 -0.841959 -1.7496194
-1.0996164 -0.19516103 -0.19310756 -0.29699802 -0.19759716 -0.14093019 -0.6256243 -0.41079772
-0.12955838 -0.30971232 -0.22237518 -0.6139877 -0.6929416 -0.19278087 -0.13022254 -0.16654053
-0.41278714 -0.10693832 -0.2462385 -0.16036865 -0.19953516 -0.21178399 -0.6652694 -0.80966574
-0.33273625 -0.27376077 -0.19463545 -0.24117047 -1.0208375 -0.21352969 -1.130939 -0.26349774
-0.48413283 -0.08726767 -0.25397015 -0.15792876 -0.63157046 -0.07820481 -0.14709467 -0.5107414
-1.1049125 -0.88945395 -0.3327335 -0.70327896 -0.17932995 -0.6179905 -0.7261441 -0.20330839
-0.21454205 -0.16641043 -0.2818131 -0.68948036 -0.18112223 -0.2572947 -0.2542311 -0.17986152
-0.3352534 -0.76697224 -0.80180156 -0.013345876 -0.17982584 -0.1768746 -0.15596917 -0.7369702
-0.16965245 -0.19351907 -0.18743452 -0.773354 -0.15129256 0.14808819 -0.20434313 -0.26570287
-0.117292665 -0.1094477 -0.7818256 -1.2188416 -0.45622757 -0.11441558 -0.13542221 -0.19888641
-0.75059915 -0.48831052 -0.19026689 -1.0747172 -0.120620176 -0.22651757 -0.3511633 -1.3217921
-0.032770146 -1.6597284 -0.45235774 -0.5826208 -0.07630931 -0.20705588 -0.16633706 -0.6218818
-0.16279387 -0.23464896 -0.08947173 -1.2595167 -0.10576742 -0.7902322 -0.15328053 -0.11403456
-0.14361118 -0.14170843 -1.3363512 -1.3218818 -0.41135457 -0.29381186 -0.25304452 -0.13393912
-0.7683565 -0.16043194 -0.20330639 -0.07835057 -0.4862188 -1.3260331 -0.08339719 -0.1368573
00000000: 1f44 92bf 2a34 87bd 29b6 aabd 4ea1 84be
00000010: a861 39be 9447 9cbe 0d2c 9ebe 20e4 a9bd
00000020: 05fe 2cbf 2556 13be 6c3c 90bf 3b55 2fbe
00000030: bd8e a3bf d8b7 23be 042d a3bd 3b8e b6be
00000040: 107f 4bbe 70b8 54be 4133 98be ef80 45be
00000050: 0505 3dbe 1fdc 1ebe 89e6 79bd 5513 75be
00000060: 6d89 eebd e53b 15be 337c 88be 49d9 bcbe
00000070: 06f7 1fbe d072 45be ccb1 1abe 85f2 6bbe
00000080: e59e 2dbe 4577 99bf 4da2 76be 7966 20be
00000090: 2165 5cbe da4f 74be f071 27bf 3eac 19bf
000000a0: b348 62bf d68b 8dbe 4b3c 43be a2df 11be
000000b0: 961b cebe 7877 10bd 187a 48be 2123 89bf
000000c0: 6c67 09be 096f b8be 22f9 92be 722d 1cbe
000000d0: f45f 05bf f18a 55bf 4e06 5dbe fa19 a4bd
000000e0: 4900 31bf 71f2 d6bf 446a 42be cd39 bdbd
000000f0: 36ae 29be 9f6a 98be 1c65 403e 3b58 5abe
00000100: 8f3d 4cbe 0d61 53be 8814 99be 955a 7bbe
00000110: 0491 47be 0743 7cbe f575 72be 515b 21be
00000120: bad6 60bf 3de4 a4be c8f2 e4bf 198f 06c0
00000130: 0d01 4fbe a32b b0bd bc35 44be 09b9 3bbe
00000140: efd0 b8be 3bcd 2dbe ebe8 47be 31c6 37bf
00000150: 9683 43be 33a1 39be 7b14 45be 43aa c5bd
00000160: 51a9 88bf 0d9f c4bf 2ce1 73be 14eb 47be
00000170: 97ab 59be 9c8c 22be ec70 29bf fd05 66be
00000180: 6bed 0cbf 5ef0 9fbf 93e5 89bf 090d a5bf
00000190: f249 1abe c9ed 96be ee82 e23d abaf 31be
000001a0: 5419 03bf a0d4 09bf b32c 9fbf 4c88 9dbe
000001b0: 2e7b 17be 905e 0cbe 0e5c b63b a243 15bf
000001c0: 9031 22be e246 c0be 927a 02be cff7 2cbe
000001d0: 6307 56be f718 6abf 458b 03bf 9ff2 23be
000001e0: 3aa3 34bf c8b0 46be 931c a8bf a129 2fbf
000001f0: f242 1fbe d035 05bf 59f8 67be 876d 83be
00000200: 6590 04bf 380b 56be 6e0c 0cbf 504b 7ebe
00000210: feff 52bf fbb4 65be a08a 57bf 87f3 dfbf
00000220: 3bc0 8cbf 4bd8 47be fdbd 45be 2010 98be
00000230: e956 4abe 0150 10be ea28 20bf 1454 d2be
00000240: f4aa 04be 9d92 9ebe 52b6 63be 4c2e 1dbf
00000250: 9f64 31bf 5968 45be 0f59 05be 9a89 2abe
00000260: d658 d3be 7a02 dbbd f225 7cbe ae37 24be
00000270: f252 4cbe e7dd 58be 184f 2abf 4146 4fbf
00000280: 685c aabe 5f2a 8cbe 844e 47be 64f5 76be
00000290: ceaa 82bf 87a7 5abe 9cc2 90bf 2de9 86be
000002a0: 42e0 f7be 64b9 b2bd 6008 82be 14b8 21be
000002b0: 9aae 21bf d829 a0bd fc9f 16be f3bf 02bf
000002c0: c66d 8dbf 41b3 63bf 0c5c aabe 170a 34bf
000002d0: 45a2 37be a034 1ebf 94e4 39bf 1330 50be
000002e0: e9b0 5bbe 7f67 2abe cf49 90be c981 30bf
000002f0: 1b78 39be 22bc 83be 942a 82be 9e2d 38be
00000300: 55a6 abbe 4b58 44bf de42 4dbf a9a8 5abc
00000310: 4424 38be 9d1e 35be 62b6 1fbe 14aa 3cbf
00000320: 5fb9 2dbe dd29 46be d6ee 3fbe 87fa 45bf
00000330: 70ec 1abe 6ea4 173e 533f 51be 350a 88be
00000340: 2337 f0bd 1e26 e0bd b925 48bf 0003 9cbf
00000350: a996 e9be b752 eabd 1fac 0abe e1a8 4bbe
00000360: 4427 40bf d603 fabe 53d5 42be 5590 89bf
00000370: b607 f7bd 39f4 67be adcb b3be 7c30 a9bf
00000380: fd39 06bd fb71 d4bf 6f9b e7be a326 15bf
00000390: 0e48 9cbd 7506 54be 4354 2abe a533 1fbf
000003a0: 70b3 26be d147 70be f43c b7bd d837 a1bf
000003b0: 979c d8bd a84c 4abf 92f5 1cbe f48a e9bd
000003c0: cf0e 13be 041c 11be 8e0d abbf 6c33 a9bf
000003d0: 119d d2be 826e 96be 0d8f 81be 5627 09be
000003e0: 03b3 44bf 4548 24be 8d2f 50be 4376 a0bd
000003f0: acf1 f8be 74bb a9bf 25cc aabd 5224 0cbe

weight f4 [3, 256]
0.09959776 0.024859093 -0.03174435 -0.024404282 0.30702636 0.14827271 -0.025144018 0.024378158
-0.2499915 0.04049826 0.18593118 -0.02300623 0.11908757 0.0069338176 -0.015874794 0.31598833
-0.0064751646 0.02322928 0.17047918 0.0030802793 0.03596309 -0.00044682203 0.006490086 0.039677486
0.007898981 -0.029156238 0.27906123 -0.42643112 -0.03758778 0.0018079712 0.18324456 -0.027265508
-0.015470678 -0.0113451695 -0.072700895 0.022361027 -0.016215632 -0.007987614 -0.0472704 0.34572738
0.12542167 -0.0068329885 -0.0050199376 0.02460392 -0.17756444 0.035338767 0.0038685247 0.08180133
-0.038595986 -0.023117058 -0.013290355 0.0004713433 -0.15369186 0.06926388 0.08148484 -0.0010268128
0.11839512 -0.112110324 -0.0011996396 -0.042649645 0.0042326297 0.10896685 -0.24451016 0.05112002
0.015185946 0.0016220652 0.032839876 0.027170835 -0.11623892 -0.0024281722 -0.038250614 -0.035618033
0.39025378 0.023132076 0.16430955 0.0149039775 -0.031151665 0.00031828956 -0.031859074 -0.093360916
0.1973879 -0.006786829 -8.7256405e-05 -0.23830828 -0.0012284379 0.052641306 0.021895427 0.008716149
-0.13582765 -0.3484819 0.02486813 0.007217887 0.019241227 -0.015561005 -0.021173129 0.07728223
0.048086524 0.08920512 0.050675638 -0.22866294 0.0005280054 0.018930215 0.11710998 0.036280233
0.23013374 -0.17749058 0.08784659 0.16432208 -0.08469612 -0.02813019 0.12097379 0.22842078
0.009509813 0.052499358 -0.0039312933 0.009124203 -0.0030281423 -0.17088412 0.21093084 -0.064948454
-0.18067105 0.0018389465 0.055192214 -0.399092 -0.025361286 0.36110926 0.004165123 0.019119726
-0.013215341 0.20674326 0.08956241 0.07159892 -0.018959487 0.05136989 -0.05189051 0.1709561
-0.1047914 -0.008047374 0.041213006 -0.16863114 0.011645692 0.24162064 0.014577373 -0.27308348
-0.002099748 0.026829379 -0.0111268 -0.023596497 -0.125508 0.030557899 0.0067498395 -0.0010345221
-0.027690254 0.0097643575 0.016925199 0.007270961 0.05419218 -0.011242792 0.16641936 -0.085516155
0.3719271 -0.000681734 -0.027392877 0.026927618 -0.12258583 0.056099202 -0.17487995 -0.040797766
0.18219969 -0.052751273 0.020813601 -0.0042026564 -0.08711436 -0.011815203 -0.0055939443 -0.13726783
-0.09987374 0.14206156 0.24104619 -0.18539235 0.011173005 -0.19072165 0.01119253 0.021814253
-0.015023014 -0.0016194155 -0.06543364 -0.35220334 0.014409571 -0.0738212 -0.0059277685 0.006170456
0.010392512 -0.05586404 0.1613736 0.13247956 -0.005473328 -0.02458133 -0.10432018 -0.20237698
0.0037734755 0.00886089 0.043708533 -0.147597 -0.039341927 -0.1203617 -0.0059965192 -0.00020188991
-0.0048660627 -0.012787017 -0.14425904 0.14204882 -0.17618561 -0.19189756 0.026460012 0.010639801
0.27033582 -0.01855233 0.02568818 -0.06738495 -0.000829433 0.031000685 -0.25287926 0.052715354
-0.018533723 -0.03556471 0.0099922465 -0.46823183 -0.028582424 0.006995873 -0.06577121 0.048513986
-0.037848387 -0.30144218 0.002900209 -0.243543 0.026087437 0.3230759 -0.010413698 0.05025556
-0.010332952 0.017943693 -0.1273669 -0.27073598 -0.26843846 0.0047061634 0.044717558 0.062470153
-0.08240596 0.014964143 0.0034426851 0.010026245 0.05315645 -0.042396124 -0.030889727 -0.01384273
00000000: e9f9 cb3d 4ca5 cb3c 5d06 02bd 7deb c7bc
00000010: 8f32 9d3e cdd4 173e d4fa cdbc b4b4 c73c
00000020: c6fd 7fbe 81e1 253d be64 3e3e 9077 bcbc
00000030: 2fe4 f33d 1435 e33b db0b 82bc 39c9 a13e
00000040: 9e2d d4bb 554b be3c 1892 2e3e 83de 493b
00000050: 084e 133d 7043 eab9 caaa d43b dc84 223d
00000060: ba6a 013c 10d9 eebc 1de1 8e3e 2e55 dabe
00000070: a5f5 19bd 72f9 ec3a 76a4 3b3e ea5b dfbc
00000080: ba78 7dbc 17e1 39bc 35e4 94bd 792e b73c
00000090: a5d6 84bc 7bde 02bc 9b9e 41bd 2e03 b13e
000000a0: 8a6e 003e 43e7 dfbb 4a7e a4bb 298e c93c
000000b0: 74d3 35be 62bf 103d 1387 7d3b 7587 a73d
000000c0: d316 1ebd fc5f bdbc cabf 59bc a01e f739
000000d0: 6661 1dbe 39da 8d3d 86e1 a63d 1f96 86ba
000000e0: 2479 f23d 199a e5bd 3a3d 9dba 65b1 2ebd
000000f0: dfb1 8a3b 032a df3d df60 7abe 3a63 513d
00000100: 79ce 783c 7a9b d43a 1b83 063d 5f95 de3c
00000110: ac0e eebd f821 1fbb adac 1cbd 37e4 11bd
00000120: 58cf c73e 7b7f bd3c c340 283e d02f 743c
00000130: c731 ffbc 1ae0 a639 a97e 02bd 0234 bfbd
00000140: 0e20 4a3e 0c64 debb 6dfd b6b8 1607 74be
00000150: 8903 a1ba 699e 573d 0a5e b33c 2ece 0e3c
00000160: 6716 0bbe 386c b2be 40b8 cb3c 0684 ec3b
00000170: c79f 9d3c 96f3 7ebc 4573 adbc 2546 9e3d
00000180: 60f6 443d 2db1 b63d 4291 4f3d 9e26 6abe
00000190: d869 0a3a 8a13 9b3c 5bd7 ef3d 959a 143d
000001a0: 2ea8 6b3e 17c0 35be eae8 b33d 0c44 283e
000001b0: 2975 adbd 4971 e6bc 1bc1 f73d 23e7 693e
000001c0: 0ccf 1b3c 9109 573d 14d2 80bb ae7d 153c
000001d0: cc73 46bb 3ffc 2ebe 41fe 573e b203 85bd
000001e0: d501 39be ce08 f13a 3b11 623d c955 ccbe
000001f0: 79c2 cfbc 50e3 b83e 967b 883b f9a0 9c3c
00000200: 2885 58bc 81b4 533e 7f6c b73d 74a2 923d
00000210: ed50 9bbc 3c69 523d 258b 54bd 1e0f 2f3e
00000220: e09c d6bd 22d9 03bc f8ce 283d a4ad 2cbe
00000230: 93cd 3e3c 676b 773e efd5 6e3c 99d1 8bbe
00000240: ed9b 09bb 49c9 db3c 2f4d 36bc 714d c1bc
00000250: 2b85 00be 8f54 fa3c c22d dd3b cd98 87ba
00000260: acd6 e2bc affa 1f3c b7a6 8a3c 3e41 ee3b
00000270: 9ff8 5d3d b033 38bc d669 2a3e 1823 afbd
00000280: 3b6d be3e 65b6 32ba 0767 e0bc 4f97 dc3c
00000290: 480e fbbd 47c8 653d bb13 33be 8f1b 27bd
000002a0: 8e92 3a3e b811 58bd 4981 aa3c 70b6 89bb
000002b0: 0369 b2bd 8e94 41bc 684d b7bb f08f 0cbe
000002c0: 9a8a ccbd 9678 113e d0d4 763e 7ed7 3dbe
000002d0: fb0e 373c 894c 43be e060 373c ceb3 b23c
000002e0: 1623 76bc 9142 d4ba 1202 86bd ff53 b4be
000002f0: 1f16 6c3c 922f 97bd ba3d c2bb 8931 ca3b
00000300: 5b45 2a3c b1d1 64bd 1f3f 253e b9a8 073e
00000310: 9a59 b3bb c95e c9bc d2a5 d5bd e93b 4fbe
00000320: 6a4c 773b 442d 113c b807 333d ab23 17be
00000330: 0025 21bd 3280 f6bd 737e c4bb 69b2 53b9
00000340: 7e73 9fbb a380 51bc a4b8 13be 3f75 113e
00000350: 006a 34be cb80 44be abc2 d83c 8f52 2e3c
00000360: 7569 8a3e 0efb 97bc 0570 d23c 1f01 8abd
00000370: 4e6e 59ba 26f5 fd3c 6479 81be 0eec 573d
00000380: 09d4 97bc 4dac 11bd 85b6 233c 15bc efbe
00000390: b025 eabc a33d e53b 0eb3 86bd 9ab6 463d
000003a0: e906 1bbd a156 9abe 6f11 3e3b 5663 79be
000003b0: 52b5 d53c 346a a53e 379e 2abc c6d8 4d3d
000003c0: 8b4b 29bc a7fe 923c 786c 02be e89d 8abe
000003d0: c470 89be 2936 9a3b c229 373d b4e0 7f3d
000003e0: 75c4 a8bd 2a2c 753c ac9e 613b 1f45 243c
000003f0: 94ba 593d 8fa7 2dbd 740c fdbc 9ecc 62bc

bias f4 [3]
0.5909121 -0.28654018 -0.29187617
00000000: 0446 173f 65b5 92be cb70 95be
